models/money_detection/money_detection_model_2019-04-13/weights.npy (npy, 3552 bytes, 1 tensors)

array f8 [428]
00000000: f9b8 2014 8bb2 1ac0 823d a9fd d217 11c0
00000010: f1b7 1298 01a4 09c0 45c4 bfa0 9124 1cc0
00000020: 30ed bb03 55a6 f23f 5403 f40c 3fb2 17c0
00000030: 293d 3352 6997 07c0 f59c d1eb 57c4 febf
00000040: 0ef1 e344 29b6 e8bf 117f 54a5 2c0c db3f
00000050: 3dab 3f80 c5a1 c1bf bc05 ca4d a632 d1bf
00000060: a7de d224 8786 dcbf ae42 e780 3107 1740
00000070: 6a99 1c80 d462 df3f 8f0d e214 7053 c9bf
00000080: 7c68 0077 1936 e1bf 57a7 a387 53de cfbf
00000090: cfd0 7c2c 9526 e9bf 46c1 31f6 8ca5 b2bf
000000a0: 61bc 619b 973c c3bf c0f9 7e6a f2ed e9bf
000000b0: 3c51 715e 8724 debf fea1 2b16 3bae edbf
000000c0: 30ec ac7a 3d75 0e40 b383 ad5b 8b5a f0bf
000000d0: f518 3b91 35ea e0bf a549 51d5 32a7 11c0
000000e0: dbe4 67a0 66ad f8bf 7ff3 6afe 36fb ebbf
000000f0: c77d c0a6 9a73 b0bf 5ea7 74de 591a c4bf
00000100: 9908 53c5 30a2 c7bf d931 e803 b368 afbf
00000110: b154 6804 2108 e3bf a670 efcc 1a76 a7bf
00000120: 2715 add7 c622 60bf 0000 0000 0000 0000
00000130: f172 0e28 10e2 d8bf 5d37 3846 6c1c 2c40
00000140: 0000 0000 0000 0000 3056 cb71 14e8 63bf
00000150: 0000 0000 0000 0000 72e2 c3b0 2115 1740
00000160: c632 d8f1 6313 dcbf 0000 0000 0000 0000
00000170: ee85 b552 1b76 0940 e465 7e34 4e4b 18c0
00000180: ad3a b5f9 e8f8 f6bf 8876 3bcc 4377 f7bf
00000190: 9398 8863 be8e 13c0 0000 0000 0000 0000
000001a0: 0000 0000 0000 0000 0000 0000 0000 0000
000001b0: 0000 0000 0000 0000 0000 0000 0000 0000
000001c0: e4b7 5684 81c3 45bf 0000 0000 0000 0000
000001d0: 6240 558c 7ae7 d7bf 0000 0000 0000 0000
000001e0: 0483 c2be 5d8e d0bf 0000 0000 0000 0000
000001f0: 0000 0000 0000 0000 0000 0000 0000 0000
00000200: 0000 0000 0000 0000 0000 0000 0000 0000
00000210: 0000 0000 0000 0000 0000 0000 0000 0000
00000220: 7961 ca44 f6fd f23f 54f2 98e8 84d6 58bf
00000230: a098 eda2 39fe 2640 bf25 fb5a e732 2440
00000240: 2668 81ac d014 2240 bf00 7ff3 bdda 2040
00000250: c687 bb10 163d 1740 8102 8d80 f58a 2240
00000260: 1493 ec67 2248 2c40 2dec 8364 2c1d 0040
00000270: f91a 6bce b595 0640 75c6 3f99 a8a7 0d40
00000280: 263f 7af2 dffa 1a40 29ce 3886 191c d0bf
00000290: b2c8 1316 8dda d2bf 3c06 6e35 abc4 e2bf
000002a0: c984 0ba6 3760 f8bf 6240 d1b0 8da8 fcbf
000002b0: 9778 33cd 9ddc cebf 2e04 2946 5278 f6bf
000002c0: 365c b83c 176a e2bf 7155 722f 3c46 e9bf
000002d0: 7952 fe72 483e d1bf 8656 d195 efcb d5bf
000002e0: 9e8d 0b71 6f13 10c0 69d5 c6b0 e3e6 e5bf
000002f0: 41dd 80b5 b17d febf e7d1 7706 b2fb f7bf
00000300: 2856 f005 0ebd fabf b0cd d49c feb9 e1bf
00000310: 084b 0152 f872 b23f fa07 1c0a 7132 dbbf
00000320: 63a4 aac0 982d ecbf e4e0 7b00 55d0 cdbf
00000330: 0bd1 f4c6 34cd debf c48b a92c 0066 d9bf
00000340: 8757 9e56 e6ae c0bf 48cd 3a07 f57d e2bf
00000350: 1df0 dee3 68b6 eabf 2637 c7ba 1c81 8dbf
00000360: 0000 0000 0000 0000 a122 611e f9d6 02c0
00000370: 83f8 dce6 8d1d 22c0 0000 0000 0000 0000
00000380: 7966 4008 5980 82bf 0000 0000 0000 0000
00000390: f979 0f94 f143 0fc0 ec96 3f4c 8436 1ec0
000003a0: 0000 0000 0000 0000 3adc 8a6f 2a47 1dc0
000003b0: ba77 4f20 8084 02c0 d91a d9c3 df58 dfbf
000003c0: 0e29 33a2 382d e1bf ebb7 573b 3df3 1cc0
000003d0: 0000 0000 0000 0000 0000 0000 0000 0000
000003e0: 0000 0000 0000 0000 0000 0000 0000 0000
000003f0: 0000 0000 0000 0000 1bb8 8d39 b76f 89bf
00000400: 0000 0000 0000 0000 ad39 da9a fe0c d8bf
00000410: 0000 0000 0000 0000 2aa6 95dc c08a 00c0
00000420: 0000 0000 0000 0000 0000 0000 0000 0000
00000430: 0000 0000 0000 0000 0000 0000 0000 0000
00000440: 0000 0000 0000 0000 0000 0000 0000 0000
00000450: 0000 0000 0000 0000 6b67 b2b1 ec0a 23c0
00000460: de7e c002 4c2e 14c0 4c31 a5b4 6f94 1ec0
00000470: 9620 e97b fe30 1840 0d3c 5e5a 42a2 14c0
00000480: b8a5 bd93 e85b f43f aac3 10c2 9170 cc3f
00000490: fac0 76d4 d34d f3bf 5721 43c3 75cd 0a40
000004a0: 8caa f50b 19f9 f43f 3440 000b 0cd2 0240
000004b0: 5303 a9cc cefa 0540 5cc8 8b1b 3505 fc3f
000004c0: 9940 a2e1 1560 dbbf 9fdf 3d66 f622 fdbf
000004d0: 458d af00 b27b e6bf cce0 57a0 9f00 b6bf
000004e0: 9ce1 800a 0ffe cbbf 5d13 2a6e 214f e7bf
000004f0: fa1a c79a fa8f e1bf f30a 53bd ab82 e2bf
00000500: 63b0 c860 fa63 e9bf 9ac9 3a59 855b b6bf
00000510: 99dd e2a6 bdac d7bf 5f0d 8dc6 5206 e03f
00000520: cff1 875f ec23 e9bf 4b47 df29 8945 f0bf
00000530: c7e1 922e efcb fcbf 2f58 54e9 8a97 f5bf
00000540: 3565 3779 ede0 d0bf 796c 05c5 b9d2 dd3f
00000550: 371b 13fb 5729 00c0 70b5 a263 58f7 02c0
00000560: f5e7 c712 40c2 06c0 6c13 9b2c 2d9d c9bf
00000570: abfb 4e65 7d8d d2bf b885 a7f9 5980 b1bf
00000580: 0ef8 0cdf 6386 0fc0 e32a 3594 8670 9ebf
00000590: 776c 4a26 81e1 b5bf 0000 0000 0000 0000
000005a0: 3e75 b859 ca8a c6bf 6546 e6d3 75b4 bcbf
000005b0: 0000 0000 0000 0000 70a3 15b3 f1ca 51bf
000005c0: 0000 0000 0000 0000 5dbd 6c33 005b 00c0
000005d0: c772 37e2 81d1 f23f 0000 0000 0000 0000
000005e0: 563e 4f8a 19fa f13f b1dd 55e4 8de5 ee3f
000005f0: e64c b88c 0741 e8bf 8ea7 b178 6b7e f8bf
00000600: 5b70 c754 dd15 04c0 0000 0000 0000 0000
00000610: 0000 0000 0000 0000 0000 0000 0000 0000
00000620: 0000 0000 0000 0000 0000 0000 0000 0000
00000630: 998b 9c9a 6ede b1bf 0000 0000 0000 0000
00000640: b940 5fb5 a5b7 65bf 0000 0000 0000 0000
00000650: 621a 612e 4b41 bfbf 0000 0000 0000 0000
00000660: 0000 0000 0000 0000 0000 0000 0000 0000
00000670: 0000 0000 0000 0000 0000 0000 0000 0000
00000680: 0000 0000 0000 0000 0000 0000 0000 0000
00000690: 5dcf d97b 2845 f4bf 26c3 25dc fe3e d63f
000006a0: d0d1 4431 ea9c b4bf 270d a357 87ee 1740
000006b0: 6bc0 3700 3a15 04c0 e0a8 c175 f249 f7bf
000006c0: 2177 833d b713 a3bf 3958 d5d1 8ea6 cbbf
000006d0: ed5f bea3 77af 1840 ea7d 5eed c197 d6bf
000006e0: 2a2e 9a52 645d e3bf a163 7eb7 7a5a d7bf
000006f0: 4574 b4d9 5124 1240 df8f db9a 9036 dd3f
00000700: 8d2d 549e 47b1 ce3f 0a77 3960 187b ca3f
00000710: 0700 d091 ffda f3bf 7a87 906b 5cbd e3bf
00000720: 75dd 9c6c cfed ce3f ecf9 fd27 3923 f63f
00000730: b2ce 3e92 9384 fbbf 3484 37e5 d1a9 e6bf
00000740: 2322 b3e2 b3fd a9bf 24a9 844f 0d7a c5bf
00000750: 00ef f6d9 5d6f ea3f 0220 7271 218e 02c0
00000760: 92ee 08d0 2873 f6bf 46a2 1133 89de e4bf
00000770: 52e4 201f f076 05c0 9c10 eb0b 393d dcbf
00000780: 5a91 a1f9 202d 05c0 0ed8 2917 2e47 e3bf
00000790: b985 f64c 5b88 0ac0 42d0 071a c2af ec3f
000007a0: a500 af0a a13e c9bf 1616 fba0 bb0c d13f
000007b0: a95e a3c6 0bd9 9abf ac09 d5b9 42fa c63f
000007c0: 9ab1 dba9 27a6 a0bf 5776 a82a 9199 a0bf
000007d0: 0000 0000 0000 0000 4bd3 e2b7 3a93 d8bf
000007e0: 370e ea52 b7bb d43f 0000 0000 0000 0000
000007f0: 5ff7 62ad c520 73bf 0000 0000 0000 0000
-6.674358667847849 -4.273265803770643 -3.205081165381664 -7.035711776451596 1.1656084199774561 -5.924068643945095 -2.9489313527953027 -1.9229354106590197
-0.77223647551685 0.4226180662681012 -0.13774937402862433 -0.2687164077434223 -0.445710931740431 5.757024778475779 0.49040710936460263 -0.19785882014921838
-0.5378539394616975 -0.2489723598767408 -0.7859598034761123 -0.07283860216717128 -0.15028662764550219 -0.81029625701904 -0.47097954008974674 -0.9275184090629975
3.8072461685201446 -1.0221055585063652 -0.5285899960079222 -4.413279851042181 -1.5423342004635774 -0.874415871534083 -0.06426397868243959 -0.1570541702470178
-0.18463716158845925 -0.061345667101793296 -0.594742306335908 -0.04582294227267995 -0.001969707836368645 0.0 -0.38879779731523373 14.055513567316376
0.0 -0.0024300002390684958 0.0 5.770636331516117 -0.4386834966433465 0.0 3.1826693021437142 -6.073540516104433
-1.4357690576759226 -1.4666173913787208 -4.88939815064636 0.0 0.0 0.0 0.0 0.0
-0.000664175263116237 0.0 -0.37350333885570397 0.0 -0.25868934277427535 0.0 0.0 0.0
0.0 0.0 0.0 0.0 1.1870024382716038 -0.0015159891066921687 11.496533481124345 10.099421351583144
9.040654555126888 8.427230462315832 5.809654485174127 9.271404282773121 14.140887496594168 2.0142448284873553 2.8231006742893183 3.706864545115247
6.744994915686936 -0.25171506984335906 -0.2945893016432236 -0.5865074199247782 -1.523490570653211 -1.7911507517747158 -0.24110767860014867 -1.4043753376611323
-0.5754505334797446 -0.7898236204807018 -0.26942645292118744 -0.34057225828778603 -4.018979803400184 -0.6844347431821635 -1.90568705463177 -1.4989490749986716
-1.6711559516892383 -0.5539544165716759 0.07206680299831814 -0.424953708527141 -0.8805660021800005 -0.23292028926494546 -0.48127479008987056 -0.3968506275324979
-0.13033751706523963 -0.5778756276326158 -0.834766812381989 -0.014406418275850163 0.0 -2.3549673436539966 -9.057723249887436 0.0
-0.009033866466825234 0.0 -3.9081756179068603 -7.5532390512287115 0.0 -7.31949781689678 -2.314697506356393 -0.4897994434908646
-0.5367701690641142 -7.237538268307598 0.0 0.0 0.0 0.0 0.0 -0.012420112079521364
0.0 -0.3757931244116673 0.0 -2.0677506669205927 0.0 0.0 0.0 0.0
0.0 0.0 0.0 -9.521337082889394 -5.045211832999227 -7.644957373220972 6.04784577951809 -5.158456241609213
1.2724385996938121 0.2221853444657687 -1.2065008448954004 3.3503222708570024 1.3108149020360171 2.3525620326472794 2.7474647511557264 1.751271350480713
-0.427739591928011 -1.8210357660118246 -0.7025995267289679 -0.08594701447134695 -0.21869075787413983 -0.7284094955108277 -0.548825552273086 -0.5784510324232016
-0.7934543505011898 -0.08733399799783684 -0.3699182634113299 0.5007718923520023 -0.785635172447252 -1.0169765124923795 -1.7997886485373884 -1.3494977106506771
-0.26372849309480567 0.46598667373991237 -2.0201873412328513 -2.370774057772614 -2.8448487727409835 -0.20010914495483278 -0.2898858537045565 -0.06836473794057596
-3.940620176871568 -0.029726126476172687 -0.08547217545349094 0.0 -0.17611054783712093 -0.1121286051113884 0.0 -0.001085983309474705
0.0 -2.0444339768943522 1.1761492573343035 0.0 1.123559513351116 0.9655217609096579 -0.7579381702838901 -1.5308642115219047
-2.5106760619510573 0.0 0.0 0.0 0.0 0.0 -0.06980029368109654 0.0
-0.002651046418556371 0.0 -0.12209005243594498 0.0 0.0 0.0 0.0 0.0
0.0 0.0 -1.2668843114779158 0.34759494303493665 -0.08051933005192002 5.9829381650227225 -2.510364534093289 -1.4555534934866543
-0.03725979448220885 -0.21602044339914686 6.1713548264451505 -0.35301254444672614 -0.6051503766370321 -0.3648974220209827 4.53546848453431 0.456455374935329
0.23978514891528527 0.20688156794033602 -1.2409663863945768 -0.616865358435674 0.24163239291531693 1.3835994302931978 -1.7198672974308633 -0.7082299687282387
-0.050763722823436795 -0.16778723128056428 0.8260945565338886 -2.319399725241966 -1.4031150938380148 -0.6521650311888798 -2.683075183097153 -0.44123674548996816
-2.64703555130306 -0.6024389698420707 -3.316580392144456 0.896454859581816 -0.19722378751430827 0.26640215607435047 -0.026218589781676602 0.17951234887921197
-0.03251766155685516 -0.03242162366607875 0.0 -0.3839861675035549 0.32395728203866575 0.0 -0.004669925858420714 0.0
